Backend/models/sign_language_model_simple.tflite (tflite, 8824 bytes, 6 tensors)

sequential/dense_1/BiasAdd/ReadVariableOp f4 [32]
-0.055620637 0.08572611 0.15175481 -0.02320323 0.10250932 -0.086521424 -0.022142831 -0.026428796
0.20570955 -0.014704765 -0.089704074 0.092414215 0.34460378 0.060379405 -0.051416185 0.08080173
0.06782703 -0.07467305 0.24553783 -0.23603064 0.2730948 0.025714071 0.36189887 -0.07844593
0.23765157 0.0 0.38375846 0.359277 0.07428143 0.18473166 0.057473537 -0.013875553
00000000: 77d2 63bd 2c91 af3d 9d65 1b3e b314 bebc
00000010: 68f0 d13d 2532 b1bd e264 b5bc 3481 d8bc
00000020: 86a5 523e 41ec 70bc c5b6 b7bd aa43 bd3d
00000030: e86f b03e 6550 773d c799 52bd 617b a53d
00000040: e6e8 8a3d 2fee 98bd 456e 7b3e 04b2 71be
00000050: 15d3 8b3e 51a6 d23c cf4a b93e 42a8 a0bd
00000060: ef5a 733e 0000 0000 fd7b c43e 28f3 b73e
00000070: dd20 983d 4c2a 3d3e 5f69 6b3d 4a56 63bc

sequential/dense_2/BiasAdd/ReadVariableOp f4 [40]
0.094115265 -0.03213046 -0.20677242 0.021187318 -0.11703772 -0.03130566 0.11881895 -0.06266732
0.076337576 0.19847496 0.26770788 0.037060965 0.026845457 0.017668078 0.10670091 0.015456818
0.31746987 -0.14240237 0.06770086 -0.07065928 -0.21000105 -0.2805574 0.004042153 -0.18957563
-0.020976327 -0.11996026 -0.07003203 -0.1729321 -0.039965235 0.04299668 -0.10331365 0.094764516
0.080628775 0.15301535 -0.11542761 -0.059643563 0.16246119 -0.16340077 -0.06617093 0.22545287
00000000: 81bf c03d 3b9b 03bd 26bc 53be 0791 ad3c
00000010: 79b1 efbd 5d3a 00bd 5a57 f33d b957 80bd
00000020: e056 9c3d 053d 4b3e 0211 893e 3dcd 173d
00000030: 01eb db3c a5bc 903c 0286 da3d 983e 7d3c
00000040: 698b a23e edd1 11be c0a6 8a3d d0b5 90bd
00000050: 840a 57be 38a5 8fbe 0974 843b 1d20 42be
00000060: 8cd6 abbc baad f5bd f46c 8fbd 1d15 31be
00000070: 96b2 23bd 491d 303d 1b96 d3bd e613 c23d
00000080: b320 a53d 0eb0 1c3e 5065 ecbd cf4c 74bd
00000090: 3a5c 263e 8852 27be a084 87bd 1edd 663e

sequential/dense/BiasAdd/ReadVariableOp f4 [64]
0.06980658 0.11453002 0.010469948 0.12314004 -0.07877597 0.276085 0.10617513 -0.0065639988
0.100987084 -0.011483451 -0.06480783 0.113038875 -0.018295076 -0.012240092 -0.044189405 0.26116428
0.32205296 0.22562727 0.20942022 0.09925707 0.2023128 0.021197118 -0.010727853 0.0
0.062045414 0.24992995 0.25702956 0.24803145 0.19449064 0.25156158 0.15814686 0.21326455
0.07840453 0.05877949 0.14793919 -0.055878498 0.13846083 -0.06934747 0.072706446 0.05121229
0.0 -0.039221227 0.10244653 0.26074025 0.39170384 0.011170713 0.29023162 0.063483745
0.1562875 0.07006794 -0.117354326 -0.025429595 0.0637029 -0.011439264 -0.052658595 0.38932586
0.17883557 0.0 0.23507082 -0.007916057 0.37635365 0.09853843 0.041064125 0.16444053
00000000: c1f6 8e3d b78e ea3d 258a 2b3c d830 fc3d
00000010: 4c55 a1bd 035b 8d3e 5972 d93d d016 d7bb
00000020: 51d2 ce3d 1625 3cbc f8b9 84bd ed80 e73d
00000030: 8edf 95bc ab8a 48bc f3ff 34bd 53b7 853e
00000040: 20e4 a43e d60a 673e 4172 563e 4a47 cb3d
00000050: 162b 4f3e 94a5 ad3c e0c3 2fbc 0000 0000
00000060: 5523 7e3d a3ed 7f3e 6199 833e f5fb 7d3e
00000070: 8e28 473e aecc 803e 40f1 213e 0662 5a3e
00000080: 8e92 a03d c3c2 703d 5f7d 173e dae0 64bd
00000090: adc8 0d3e 0c06 8ebd 1ee7 943d fac3 513d
000000a0: 0000 0000 70a6 20bd 7ccf d13d bf7f 853e
000000b0: 688d c83e 5e05 373c 3d99 943e c403 823d
000000c0: d509 203e c87f 8f3d 7757 f0bd ba51 d0bc
000000d0: ab76 823d c06b 3bbc 8ab0 57bd b855 c73e
000000e0: ac20 373e 0000 0000 68b6 703e 59b2 01bc
000000f0: 6db1 c03e 84ce c93d db32 283d 1963 283e

sequential/dense/MatMul i1 [64, 42] scale=0.014584056 zero_point=0
1.0062999 -0.029168112 0.8896274 -0.07292028 0.6854506 -0.3354333 0.37918547 0.18959273
0.7292028 0.11667245 0.48127386 -0.18959273 0.21876085 -0.16042462 0.14584056 0.55419415
0.30626518 0.5396101 0.525026 0.029168112 0.20417678 0.262513 0.5396101 0.6416985
0.3937695 0.6271144 0.3354333 0.24792895 0.3937695 -0.17500867 0.5396101 -0.11667245
0.71461874 -0.21876085 0.37918547 0.48127386 0.029168112 0.07292028 -0.5833622 -0.55419415
-0.3937695 -0.772955 0.029168112 0.0 0.21876085 -0.32084924 0.10208839 -0.3937695
0.55419415 -0.30626518 0.9625477 -0.525026 0.4375217 -0.14584056 0.35001734 -0.20417678
0.3354333 -0.18959273 0.32084924 -0.087504335 0.2916811 0.262513 0.772955 -0.11667245
0.75837094 -0.3937695 0.6416985 -0.787539 0.6416985 0.27709708 1.050052 0.3937695
0.81670713 0.043752167 0.6271144 0.14584056 1.1958926 -0.07292028 1.0792202 0.21876085
0.4958579 -0.087504335 -0.18959273 0.014584056 -0.058336224 0.087504335 0.2333449 0.5396101
0.35001734 0.61253035 0.1312565 0.2333449 -0.043752167 0.6854506 0.11667245 0.5687782
0.043752167 0.4666898 -0.11667245 0.17500867 0.27709708 -0.058336224 0.07292028 0.3937695
0.10208839 0.24792895 -0.3354333 -0.20417678 -0.087504335 -0.21876085 -0.4666898 0.21876085
-0.4666898 -0.35001734 -0.5687782 -0.4958579 -0.18959273 -1.035468 -0.61253035 0.32084924
-0.6416985 0.42293763 -0.16042462 0.3354333 0.16042462 0.18959273 -1.0792202 0.058336224
-0.51044196 0.5396101 0.27709708 0.262513 0.55419415 0.3354333 0.6416985 0.3354333
0.35001734 0.32084924 0.11667245 -0.18959273 0.014584056 -0.014584056 0.27709708 0.0
0.17500867 -0.07292028 0.20417678 -0.6416985 0.14584056 -0.2333449 0.029168112 -0.24792895
0.0 0.16042462 -0.1312565 -0.32084924 -0.058336224 -0.27709708 -0.45210573 0.087504335
-0.71461874 -0.24792895 0.21876085 0.043752167 0.4666898 0.55419415 0.6416985 0.9187955
0.48127386 -0.24792895 0.4375217 -0.3646014 0.2333449 0.087504335 0.7437869 0.7437869
1.2250607 1.1229724 0.087504335 -0.20417678 0.11667245 0.55419415 0.51044196 0.8896274
0.6271144 0.772955 0.262513 0.014584056 0.0 0.6854506 -0.4375217 0.4375217
-0.4958579 0.45210573 0.5687782 -0.014584056 -0.029168112 0.4375217 -0.16042462 -0.3354333
0.16042462 -0.7000347 0.5396101 -0.1312565 -0.42293763 0.30626518 -0.55419415 -0.32084924
-0.48127386 -0.6416985 -0.11667245 -0.40835357 -0.35001734 -0.35001734 -0.35001734 0.2333449
-0.525026 0.32084924 -0.3937695 0.75837094 -0.24792895 -0.27709708 0.3937695 0.21876085
0.55419415 0.5687782 0.5979463 0.61253035 0.27709708 -0.087504335 0.21876085 -0.17500867
0.21876085 -0.2916811 0.17500867 -0.3937695 0.3354333 -0.4375217 0.35001734 0.24792895
0.2916811 0.7292028 0.2916811 0.772955 0.4375217 -0.42293763 0.55419415 0.525026
0.4958579 0.5833622 0.84587526 0.5687782 -0.5687782 0.1312565 -0.4958579 0.2333449
00000000: 45fe 3dfb 2fe9 1a0d 3208 21f3 0ff5 0a26
00000010: 1525 2402 0e12 252c 1b2b 1711 1bf4 25f8
00000020: 31f1 1a21 0205 d8da e5cb 0200 0fea 07e5
00000030: 26eb 42dc 1ef6 18f2 17f3 16fa 1412 35f8
00000040: 34e5 2cca 2c13 481b 3803 2b0a 52fb 4a0f
00000050: 22fa f301 fc06 1025 182a 0910 fd2f 0827
00000060: 0320 f80c 13fc 051b 0711 e9f2 faf1 e00f
00000070: e0e8 d9de f3b9 d616 d41d f517 0b0d b604
00000080: dd25 1312 2617 2c17 1816 08f3 01ff 1300
00000090: 0cfb 0ed4 0af0 02ef 000b f7ea fced e106
000000a0: cfef 0f03 2026 2c3f 21ef 1ee7 1006 3333
000000b0: 544d 06f2 0826 233d 2b35 1201 002f e21e
000000c0: de1f 27ff fe1e f5e9 0bd0 25f7 e315 daea
000000d0: dfd4 f8e4 e8e8 e810 dc16 e534 efed 1b0f
000000e0: 2627 292a 13fa 0ff4 0fec 0ce5 17e2 1811
000000f0: 1432 1435 1ee3 2624 2228 3a27 d909 de10

sequential/dense_1/MatMul i1 [32, 64] scale=0.013148644 zero_point=0
-0.43390524 -0.013148644 0.5259458 0.47335118 0.18408102 0.49964848 0.118337795 0.013148644
0.43390524 -0.28927016 0.68372947 0.10518915 -0.69687814 -0.039445933 -0.026297288 -0.43390524
0.19722965 0.3287161 0.22352695 0.28927016 0.5127971 -0.10518915 -0.5653917 0.118337795
-0.74947274 -0.5785403 -0.118337795 -0.3287161 -0.4470539 0.28927016 0.48649982 0.23667559
0.40760797 0.2103783 0.69687814 0.026297288 -0.28927016 0.17093237 -0.591689 0.6048376
-0.27612153 0.5127971 0.052594576 -0.47335118 0.19722965 0.8678105 -0.17093237 -0.67058086
-0.55224305 0.38131067 0.74947274 0.40760797 -0.47335118 -0.2103783 0.7231754 0.4207566
0.7231754 -0.2103783 -0.38131067 -0.77577 0.5259458 0.77577 0.24982424 -0.28927016
0.74947274 0.22352695 -0.46020254 -0.6311349 -0.078891866 0.18408102 0.0 0.013148644
0.118337795 -0.19722965 -0.28927016 0.64428353 -0.118337795 0.06574322 -0.17093237 -0.40760797
0.9861483 0.06574322 -0.3287161 0.31556746 -0.47335118 0.026297288 -0.6048376 -0.039445933
-0.14463508 0.69687814 0.15778373 0.7363241 -0.3024188 -0.5127971 0.18408102 0.69687814
-0.5785403 0.15778373 0.34186473 0.0 0.68372947 -0.09204051 0.4470539 0.3287161
-0.17093237 0.22352695 0.9335537 0.7889186 0.4207566 -0.10518915 0.74947274 0.22352695
0.13148645 -0.22352695 0.46020254 1.1044861 0.9861483 0.052594576 -0.13148645 -0.15778373
-0.36816204 -0.31556746 0.6574322 -0.052594576 0.34186473 -0.19722965 -0.6574322 -0.4207566
-0.4470539 0.7889186 -0.2103783 0.22352695 -0.7889186 0.38131067 -0.46020254 -0.3024188
0.14463508 -0.5259458 0.48649982 0.2103783 -0.76262134 0.24982424 0.74947274 -0.3550134
-0.14463508 -0.24982424 -0.026297288 0.3024188 0.81521595 0.19722965 0.18408102 -0.026297288
-0.61798626 -0.15778373 0.36816204 0.039445933 0.118337795 -0.15778373 -0.10518915 0.5127971
-0.14463508 -0.22352695 -0.17093237 -0.17093237 -0.5785403 0.43390524 -0.38131067 0.23667559
-0.052594576 -0.2103783 -0.6574322 0.38131067 0.10518915 0.46020254 0.2103783 -0.5127971
-0.24982424 0.28927016 0.013148644 0.23667559 -0.13148645 0.2103783 0.28927016 -0.22352695
0.5785403 0.13148645 0.078891866 -0.28927016 0.34186473 0.039445933 -0.18408102 0.0
0.09204051 0.09204051 -0.078891866 0.19722965 0.026297288 0.10518915 -0.15778373 0.013148644
0.039445933 0.118337795 0.078891866 0.2103783 0.14463508 0.078891866 0.039445933 0.2103783
-0.19722965 -0.17093237 0.06574322 0.10518915 -0.06574322 -0.2629729 0.24982424 -0.06574322
0.09204051 0.026297288 -0.026297288 0.06574322 -0.013148644 -0.09204051 0.13148645 -0.18408102
0.10518915 0.23667559 0.17093237 0.14463508 -0.23667559 0.10518915 -0.15778373 -0.118337795
0.039445933 -0.2629729 0.013148644 0.039445933 0.17093237 -0.013148644 0.026297288 -0.026297288
-0.10518915 -0.013148644 -0.18408102 0.19722965 0.026297288 0.14463508 0.118337795 -0.118337795
0.026297288 0.026297288 -0.039445933 0.23667559 -0.17093237 -0.14463508 -0.2629729 -0.026297288
00000000: dfff 2824 0e26 0901 21ea 3408 cbfd fedf
00000010: 0f19 1116 27f8 d509 c7d4 f7e7 de16 2512
00000020: 1f10 3502 ea0d d32e eb27 04dc 0f42 f3cd
00000030: d61d 391f dcf0 3720 37f0 e3c5 283b 13ea
00000040: 3911 ddd0 fa0e 0001 09f1 ea31 f705 f3e1
00000050: 4b05 e718 dc02 d2fd f535 0c38 e9d9 0e35
00000060: d40c 1a00 34f9 2219 f311 473c 20f8 3911
00000070: 0aef 2354 4b04 f6f4 e4e8 32fc 1af1 cee0
00000080: de3c f011 c41d dde9 0bd8 2510 c613 39e5
00000090: f5ed fe17 3e0f 0efe d1f4 1c03 09f4 f827
000000a0: f5ef f3f3 d421 e312 fcf0 ce1d 0823 10d9
000000b0: ed16 0112 f610 16ef 2c0a 06ea 1a03 f200
000000c0: 0707 fa0f 0208 f401 0309 0610 0b06 0310
000000d0: f1f3 0508 fbec 13fb 0702 fe05 fff9 0af2
000000e0: 0812 0d0b ee08 f4f7 03ec 0103 0dff 02fe
000000f0: f8ff f20f 020b 09f7 0202 fd12 f3f5 ecfe

sequential/dense_2/MatMul i1 [40, 32] scale=0.013119646 zero_point=0
-1.4956397 0.223034 -0.18367505 0.45918763 -0.3673501 0.5379055 0.4854269 0.065598235
-0.052478585 -0.1443161 -0.7347002 -0.27551258 0.065598235 0.27551258 0.47230726 0.3411108
0.43294832 -0.24927329 0.03935894 0.19679469 0.065598235 -0.8134181 -0.26239294 -0.223034
-0.7609395 0.26239294 0.013119646 -1.3250843 -0.4854269 0.35423046 0.446068 0.24927329
0.23615363 -0.6822216 -0.19679469 0.18367505 0.26239294 0.40670905 -0.31487152 0.13119647
0.45918763 0.223034 -0.065598235 0.40670905 -0.38046974 -1.666195 0.10495717 -0.10495717
-0.6559823 -0.026239293 -1.3382039 -0.446068 0.15743576 -1.2726057 0.052478585 -0.6822216
0.3673501 0.223034 -0.30175185 0.66910195 0.13119647 -0.40670905 0.0 0.065598235
0.07871788 -0.10495717 0.3673501 0.18367505 -0.6035037 -0.55102515 0.07871788 0.30175185
-0.6428627 -0.13119647 -0.065598235 -0.83965737 -0.5772644 -0.065598235 -0.223034 0.41982868
0.3673501 -0.43294832 -0.47230726 0.6428627 0.30175185 -0.40670905 0.0 0.19679469
0.30175185 0.0 -0.2886322 0.026239293 0.5379055 0.03935894 -0.052478585 0.19679469
-0.118076816 -0.26239294 -0.30175185 -0.10495717 0.091837525 0.07871788 0.07871788 0.091837525
-0.66910195 0.24927329 -0.20991434 -0.23615363 -0.3673501 0.43294832 -0.026239293 0.03935894
0.026239293 0.10495717 -0.23615363 -0.065598235 0.03935894 0.091837525 -1.1414093 0.013119646
0.15743576 0.1443161 0.15743576 -0.9052556 -0.24927329 0.5116662 0.7347002 0.052478585
-0.49854657 0.118076816 -0.5379055 0.49854657 -0.27551258 -0.18367505 -0.41982868 0.013119646
0.20991434 -0.1443161 0.31487152 -0.07871788 0.2886322 -0.2886322 0.18367505 0.59038407
0.43294832 -0.6822216 0.19679469 0.15743576 -0.62974304 -0.1443161 0.1705554 -0.27551258
-0.6822216 0.03935894 0.15743576 0.10495717 -0.118076816 -0.45918763 -1.3775629 -0.10495717
-0.6559823 0.26239294 -0.15743576 0.40670905 -1.2857254 0.1705554 -0.052478585 0.10495717
-0.07871788 -0.1443161 -0.013119646 -0.852777 0.07871788 0.26239294 0.3673501 -0.03935894
0.59038407 -0.7347002 0.091837525 0.2886322 -0.55102515 0.026239293 -0.1443161 0.065598235
-0.1443161 -0.2886322 0.19679469 -0.446068 0.3673501 -0.18367505 -0.8790163 -0.065598235
-0.6035037 0.15743576 0.223034 -0.18367505 -0.8790163 -0.19679469 0.118076816 -0.23615363
0.1443161 -0.30175185 0.13119647 -0.18367505 0.223034 0.15743576 -1.2857254 0.41982868
0.24927329 -0.03935894 -0.10495717 -0.55102515 -1.3775629 0.5116662 0.3673501 0.052478585
-0.9446145 -0.15743576 0.5116662 -0.32799116 -0.5379055 -0.13119647 -1.2070074 -0.10495717
-0.49854657 0.2886322 -0.24927329 0.10495717 -0.19679469 -0.18367505 0.03935894 0.3411108
-0.66910195 0.35423046 -0.74781984 -0.45918763 0.15743576 0.052478585 -0.6822216 -0.07871788
-0.052478585 -0.7609395 0.3673501 -0.20991434 -1.2857254 0.45918763 0.026239293 0.38046974
-0.6166234 -0.03935894 0.5379055 0.2886322 -0.59038407 0.24927329 -0.49854657 0.32799116
00000000: 8e11 f223 e429 2505 fcf5 c8eb 0515 241a
00000010: 21ed 030f 05c2 ecef c614 019b db1b 2213
00000020: 12cc f10e 141f e80a 2311 fb1f e381 08f8
00000030: cefe 9ade 0c9f 04cc 1c11 e933 0ae1 0005
00000040: 06f8 1c0e d2d6 0617 cff6 fbc0 d4fb ef20
00000050: 1cdf dc31 17e1 000f 1700 ea02 2903 fc0f
00000060: f7ec e9f8 0706 0607 cd13 f0ee e421 fe03
00000070: 0208 eefb 0307 a901 0c0b 0cbb ed27 3804
00000080: da09 d726 ebf2 e001 10f5 18fa 16ea 0e2d
00000090: 21cc 0f0c d0f5 0deb cc03 0c08 f7dd 97f8
000000a0: ce14 f41f 9e0d fc08 faf5 ffbf 0614 1cfd
000000b0: 2dc8 0716 d602 f505 f5ea 0fde 1cf2 bdfb
000000c0: d20c 11f2 bdf1 09ee 0be9 0af2 110c 9e20
000000d0: 13fd f8d6 9727 1c04 b8f4 27e7 d7f6 a4f8
000000e0: da16 ed08 f1f2 031a cd1b c7dd 0c04 ccfa
000000f0: fcc6 1cf0 9e23 021d d1fd 2916 d313 da19
